LSTM/lstmData/model_state_dict_lstm.pth (torch, 442057 bytes, 16 tensors)

lstm.weight_ih_l0 f4 [280, 17]
00000000: 713e fcbd 63d0 c63d b0bd 23bd 32eb 863b
00000010: 05e4 82bd 3ef3 a0bd 142c 753d 1710 023b
00000020: 0d29 2cbd 801f 7abd 0cfa 093d a006 203c
00000030: b6d6 373b c029 90bd fdbe 89bd 9cbd cd3d
00000040: af83 a53b beb4 e83c f157 ea3b ce0b 1a3b
00000050: 7fdd 25bc 8a02 14bd e402 833d 34da e93d
00000060: 6243 653d 7659 b23d be4f fabc a932 013e
00000070: 78a8 063e 62ac 48bd 047c b9bc 8ca3 d53c
00000080: 4595 e23c 9e2f 50bd 4f38 80bd b26a 013e
00000090: 6393 2c3d 653b 0c3d 0708 3f3d 4e93 64bc
000000a0: 1531 c83d 78a2 5abd 8bff 6fbd 6330 37bc
000000b0: 1032 523b 3571 b03d f801 873c 4020 85bd
000000c0: ab4b 173c 34f7 c1bd 7c55 9cbd 8cc0 843c
000000d0: 8052 a7bd e880 b03d 9afe 4c3d f507 003e
000000e0: 5a4f 763d d087 e23d f996 e23d ac94 8e3d
000000f0: 08ee 743d cc64 2ebc b88d acbb 493b a03c
00000100: 05ee c53d ec08 e73d 5de6 9e3d 513a 733c
00000110: 5961 acbc 673c 833d 2fb3 76bc 4151 93bd
00000120: 3125 233d 6a1f 5abd bc6b b7bd 1205 733d
00000130: b6f5 b3bd 25f2 313d ecf8 85bd b2b2 153c
00000140: 404f 373d a1d2 1bbd 8d5a bf3d f74b e23d
00000150: 3d41 0f3e 2d31 8e3d 3f92 103e d6ff cbbb
00000160: 2fd5 ddbd e5d0 c6bd 22bd cebd f932 38bd
00000170: 8bac dbbd 999d 723d 97c8 943d 88ef c13c
00000180: 8fde 04bd 9e8a 033e e68a 1d3d 7364 cb3d
00000190: 0cd3 e6bc 75d5 96bc 902a 873c 54a1 1c3e
000001a0: c744 bb3c d0b1 c33d b01e 033d a6ec c63d
000001b0: 187e 5f3d d872 693c 4d1d 0f3e 0142 723b
000001c0: 6ef1 99bd bc82 c0bd a95b f93c 3a35 9abd
000001d0: af38 993d 4201 9dbd 06ab 973c 6b3e 8e3d
000001e0: 4b1b 2fbd 21dc 0abc 0cb2 82bd 1748 39bc
000001f0: 3111 e03d 7602 e83d 529b 8f3c c9cf a8bc
00000200: 5c07 ef3d 37d7 813d 5fdd d2bc a45e bd3d
00000210: 7360 d93d a400 3cbd 5317 36bd 5d38 81bd
00000220: 5804 0c3c e01d f5bc 2ff4 943c c53a 10bd
00000230: 6a34 dd3d bdc3 a93c 9a92 c5bd f5b5 d03c
00000240: 7670 4bba 2f60 89bd 5330 5ebd 0ed1 863c
00000250: 480f c7bd babe 093c 6c45 8cbd f807 283d
00000260: 0497 8c3d be3e 443c 4ac4 7bb9 4d71 46bd
00000270: c39f 31bd 77ec 093c ad4a a8bc c535 663d
00000280: 11a3 50bd de70 803b a048 94bd d77c d83d
00000290: 55f9 bd3d c9c5 953c 9260 e63d 9478 d5bd
000002a0: 12a9 9c3d dda2 a23a 16d4 e63d 823a bc3d
000002b0: 4dfb e23d 1869 8e3d 3262 7e3d e7b0 293d
000002c0: 2978 26bd d7be d5bd 9f23 a0bd 7c66 ca3d
000002d0: 7213 d4bd 29a4 ccbd 1509 debd 1663 c3bd
000002e0: 654b b93d c76d e3bd 0148 d6bd a12a 9b3d
000002f0: dbc8 a8bd 4022 a6bc 800c 833d 7e22 be3d
00000300: 7a94 bc3c 5b41 293d 69b9 31bc c14d 6c3d
00000310: b96d 0bbe 4a2c cebd 8361 b0bd 104c b6bc
00000320: a530 ab3d 6849 93bd 37ff 77bc 65eb 92bd
00000330: 3225 343c 720c 7ebd dd44 023e 50dc 403d
00000340: 7429 97bd 8875 c8bd 7c57 efbd 5384 7b3d
00000350: 8691 eabd 8d1d dd3c 74fd b83d 5a7a d83c
00000360: b037 983d 8612 62bd 51fe 7c3c ea60 99bd
00000370: be8c 35bc 67b6 01bd 50dc 653d def4 a73d
00000380: e024 cf3b a57e 3e3b 2a58 b63c fddb acbd
00000390: 855b 15bd 1f04 b93d 8aaf 8e3d 88aa 86bd
000003a0: 6d37 eb3d e550 003e 9366 ca3d 3759 86bd
000003b0: 56d3 54bd ba7d 263d acc2 073e c23b 9f3d
000003c0: a9e5 453d efc6 e5bc ae38 9f3d 09d4 a9bd
000003d0: 7985 dc3d dc0e cd3a 72ca 143d e809 7bbc
000003e0: 52cb 993d fd98 e83c d8f9 b83d 07c5 843d
000003f0: 1567 33bd d7ce b2bd 9bb4 77bd 1e6f 7abd
-0.12316597 0.09707715 -0.039975822 0.004117393 -0.063911475 -0.07858895 0.05985649 0.0019846016
-0.042031337 -0.061065197 0.03368573 0.0097672045 0.0028051562 -0.07039213 -0.06725881 0.10045931
0.0050510983 0.028406497 0.0071515967 0.0023505571 -0.01012361 -0.036135234 0.06397036 0.11418572
0.055972464 0.087084696 -0.030555602 0.12616982 0.13150203 -0.048992522 -0.022642143 0.026078962
0.027659068 -0.05082666 -0.0626074 0.12638357 0.042132746 0.03423633 0.046638515 -0.013951136
0.09774987 -0.0533776 -0.058593314 -0.01118097 0.0032073297 0.086153425 0.016480431 -0.06500292
0.009234349 -0.094709784 -0.07633492 0.016205095 -0.081700325 0.08618337 0.050047494 0.12503035
0.06013427 0.110610604 0.11063952 0.06961951 0.059797317 -0.010644149 -0.0052659176 0.01955952
0.09664539 0.112809986 0.07758782 0.014845447 -0.021042513 0.06408005 -0.015057369 -0.07193232
0.03983039 -0.053252615 -0.089560956 0.059331007 -0.087871 0.043443818 -0.06541619 0.009136843
0.044753313 -0.03804267 0.09343443 0.110496454 0.1398973 0.06942973 0.14118288 -0.0062255664
-0.10831677 -0.09707812 -0.10094668 -0.044970486 -0.10726269 0.059232328 0.07264822 0.023673788
-0.03243881 0.12845847 0.038462542 0.099312685 -0.028176807 -0.018412331 0.016499788 0.15295917
0.022859944 0.095553994 0.032011688 0.09713106 0.05456361 0.014248572 0.13976021 0.003696561
-0.07516752 -0.093999356 0.030439215 -0.075296834 0.07481515 -0.076662555 0.018514168 0.06945499
-0.042750638 -0.008475334 -0.06381616 -0.011308691 0.10940779 0.113285944 0.017530117 -0.020606892
0.116713256 0.06339877 -0.025740324 0.09246567 0.10614099 -0.04589905 -0.044455837 -0.063095786
0.0085459575 -0.029921472 0.018182842 -0.035212297 0.10801013 0.020723218 -0.09647103 0.025477389
-0.00077605934 -0.06707799 -0.054245304 0.016457107 -0.097197115 0.008407289 -0.06849179 0.041023225
0.068647414 0.0119778495 -0.00024010349 -0.048447896 -0.04336525 0.008418194 -0.02054342 0.056203622
-0.050936762 0.003919705 -0.072404146 0.10570686 0.09276072 0.018282788 0.11248888 -0.10423389
0.07649435 0.0012408156 0.11270921 0.09190847 0.11083088 0.06953639 0.062105365 0.041428473
-0.040641937 -0.104367904 -0.07819294 0.098828286 -0.103552714 -0.099922486 -0.10841576 -0.095403835
0.090475835 -0.11104923 -0.104629524 0.0757649 -0.08241435 -0.020280004 0.063988686 0.092839226
0.023020018 0.041322093 -0.010847428 0.05769134 -0.13616075 -0.10067041 -0.08612349 -0.022253066
0.083588876 -0.071917355 -0.015136532 -0.07173804 0.010995196 -0.062023588 0.12721582 0.047085106
-0.073809534 -0.09788042 -0.11686608 0.06140549 -0.11453538 0.02699163 0.09032717 0.02642553
0.074324965 -0.055193447 0.015441493 -0.07489188 -0.011080919 -0.031668093 0.05611831 0.082010016
0.0063215345 0.0029067185 0.022258837 -0.08440397 -0.036464233 0.09033989 0.06967075 -0.06575495
0.11485181 0.12530859 0.09882846 -0.06559985 -0.05195936 0.040647246 0.13257855 0.0777507
0.048314724 -0.02804896 0.07774483 -0.082923956 0.107676454 0.0015644687 0.03632588 -0.015322186
0.075094834 0.028393263 0.09032029 0.064828925 -0.04379948 -0.08730858 -0.060474973 -0.061141126

lstm.weight_hh_l0 f4 [280, 70]
00000000: 4b7f 0f3e 210e b7bc 0cb8 173d 577f febd
00000010: 8bbf b83d 49ea bebc e0c4 84bb 6ed3 fcbc
00000020: dbb3 683c c81f f3bd acb0 37bd 9515 be3c
00000030: 3b36 30bd 0f5c f8bc 31f7 643c 805f 52bc
00000040: e7b6 883d dca3 a63d 3906 423d cee7 6a3d
00000050: e6f1 bfba 1167 a1bd 0bd3 1bbd 4c45 13be
00000060: 3397 00be d268 993d e431 223b be65 cd3c
00000070: 7aac 903c bf97 c5bc 04a8 453c d5cc fcbd
00000080: f51b c3bd 0f97 023d bfc7 073e 77b9 22bd
00000090: d5b4 623d c876 c2bd 4667 883c 1006 8a3d
000000a0: b5c1 133e 4b91 f93c 0aba 203d 2906 ffbd
000000b0: 0c07 b2bd e0ea 983d b0b9 8e3d 8c86 05be
000000c0: 4ce1 d8bd f56a 093e b0ce 703d c1a8 8a3d
000000d0: 84a5 523d 77b5 bebd 2a68 8f3c 246f 50bd
000000e0: fd3a 933d 5402 f8bd 4d86 7c3d a99a f3bc
000000f0: 1721 993d f5be a1bd 5b91 2f3c 840e 963d
00000100: 1e61 0c3e cc5e 333d bd2a 04be b22a 1f3e
00000110: 8585 85bd 3be9 1fbd df40 da3d a354 8bbd
00000120: 9e18 0b3b c8ec f4bc 2e3b aa3d 41a1 40bc
00000130: ed5c 863d 1af4 bdbd 0cb3 a13c 7403 e6bc
00000140: 9cc9 1abe d49b 20bc 1218 833d 17d0 643d
00000150: 6cb3 103c 75a4 003d dada 693d 8fbe 8b3d
00000160: fc3d 903d 6df2 893d 6c0e b83c 5dc9 a8bd
00000170: 8318 58bd 94a3 16be 2417 0f3d dc7e c5bb
00000180: 5ffe 833c 8623 3f3d 7606 983d 367b a8bd
00000190: 5f63 2fbd 5944 50bc 71cf f93c 6cfc 8abd
000001a0: 3846 c13d 52eb 7cbd bb22 87bd 84d1 163d
000001b0: 86cd 013e d1ef 22be 2020 ce3c 4288 ea3d
000001c0: 255d 843b ae46 063d 4424 6bbd 5a8b ec3c
000001d0: 5edf 5abd 2fcf 83bd 63bc cdbd 9577 5dbd
000001e0: 1c20 f4bd 62de 5f3d e121 9a3d 0af8 84bd
000001f0: ed63 58bb 2b75 803d 6222 3d3d a6ec eebd
00000200: 4930 88bd 399b c13d 530c 16be be63 c83c
00000210: 7728 ce3d cbae 093d 7bd6 12bd 7027 963d
00000220: 3188 2fbc c7f4 ef3d 6966 afbb abee 03be
00000230: b5b6 863a 85ce b1bd cf49 8abd 4a6b cc3c
00000240: 07ce ae3c a412 8cbd 640b 8f3c b356 1bbe
00000250: c3b3 a3bc 730b 0bbe 5360 cfba b951 6a3d
00000260: 321f d03a 835c 01bd 4f74 043e 8aa7 31bd
00000270: 606f f53d a028 28bc cde1 95bc a944 8e3d
00000280: 6c9a 18be 0908 be3d 7d77 ad3d c2e7 cebd
00000290: 8cf8 563d bea9 973d 1fa8 ee3d 91ba 8fbd
000002a0: 5aad a8bd 6c41 b13d 160d df3c bae4 21bd
000002b0: f539 aa3d f38d 893d 47d6 2e3c 59ef 4f3d
000002c0: 7690 183c 5e65 223c 56d4 8bbd 54b1 dcbd
000002d0: 3037 bbbc d38a 89bd fbf4 e3bd 0d3a 4f3d
000002e0: ff8b b8bd a3d4 a4bc fd71 09bc 5d96 ecbd
000002f0: 04dd cd3d d037 78bc 517a 1c3d 2ef9 52bd
00000300: ee4f 4abd 670e ad3d f6a4 f43d 13f9 743d
00000310: 862b 13be 43b4 0ebe 988b a33d 5d34 26bc
00000320: d42a 9a3d d348 2b3d 3055 0a3e c093 05bd
00000330: 20ad 03bd a987 dbbc 11de 5b3d 53ce 753d
00000340: fe15 1b3d d0d1 523d c8ae b33d 2463 abbb
00000350: 920d 73bb 0fc4 323d 420f 153d 2cb6 8bbd
00000360: b024 0ebd 6199 e5bd 8761 a83d 56d2 a73c
00000370: 8261 e1bd 99f5 9d3d e55e 94bd 3379 e83c
00000380: dc30 3bbc 6750 5dbc edd9 e5bd 8f08 ccbd
00000390: 5bf0 a93c 9251 05be 62a6 19be fe66 8bbd
000003a0: 526e 75bd a551 943d c6b4 d93b c64f b03d
000003b0: 01e2 4b3b 3ba7 c9bb 9133 00bd b727 89bc
000003c0: aa65 fb3d e155 453d 9e40 f6bc 88aa 6c3d
000003d0: e9f3 e93c 0d7b 023d 2e3a 513c 66cf 42bc
000003e0: 95d9 a8bd a588 573d acf5 33bd fc6d d63d
000003f0: aa1e 3a3d 5dcb 9d3c 8c88 7abc 828f b1bd
0.14013402 -0.022345604 0.037040755 -0.12426632 0.09020909 -0.023305075 -0.0040517896 -0.030862536
0.014203037 -0.11871296 -0.04484622 0.02320365 -0.04302047 -0.030317334 0.013974951 -0.012840152
0.06675511 0.081367224 0.047369216 0.057349972 -0.0014644235 -0.078809865 -0.038043063 -0.14381903
-0.12557678 0.07490696 0.0024748975 0.025072929 0.017660368 -0.02412021 0.012063984 -0.12343756
-0.09526817 0.031882342 0.13259791 -0.039727654 0.055348236 -0.09495312 0.016650807 0.067394376
0.14429362 0.030464789 0.03923992 -0.12452347 -0.0869275 0.07466674 0.06969011 -0.13039607
-0.10589847 0.13419707 0.058790863 0.067704685 0.05142738 -0.093119554 0.017505724 -0.050887242
0.071889855 -0.12109819 0.061651517 -0.029736834 0.074770145 -0.0789775 0.010715808 0.073269874
0.13708922 0.043791577 -0.12906928 0.1554363 -0.065196075 -0.039040785 0.106569044 -0.068032525
0.002122439 -0.029898062 0.08312069 -0.011757196 0.06560693 -0.09275074 0.019738697 -0.028077818
-0.1511597 -0.009802777 0.064010754 0.055862512 0.00883184 0.03140684 0.05709348 0.068234555
0.070430726 0.06735692 0.022467814 -0.08241532 -0.05275775 -0.14710838 0.034934178 -0.0060270857
0.016112505 0.046664737 0.07423107 -0.082266256 -0.042819377 -0.012711608 0.030494424 -0.06786427
0.09437221 -0.061747856 -0.06598421 0.036820903 0.12676057 -0.15911795 0.025161803 0.1145177
0.004039424 0.03278225 -0.057407632 0.028875042 -0.053435676 -0.064360015 -0.100456975 -0.05406912
-0.11920187 0.05465544 0.07525993 -0.06492622 -0.0033018545 0.06272348 0.046175368 -0.11666231
-0.06649835 0.094534345 -0.14653139 0.024461623 0.10066312 0.03361396 -0.035849076 0.07331741
-0.010713623 0.117166094 -0.0053527844 -0.12884013 0.001027784 -0.086819686 -0.06752359 0.024953503
0.021338476 -0.06839493 0.017461486 -0.15169792 -0.019983178 -0.13578586 -0.0015821554 0.057206843
0.0015878438 -0.031582367 0.12934993 -0.04337267 0.11984134 -0.010263592 -0.018296147 0.0694669
-0.14902657 0.09278876 0.08470056 -0.10102798 0.052483127 0.07405423 0.1165316 -0.070180066
-0.08236189 0.08655056 0.02722792 -0.03952477 0.08311836 0.06716528 0.010671205 0.05076537
0.009311786 0.009911863 -0.06827609 -0.1077601 -0.022853464 -0.06715932 -0.11130711 0.05059247
-0.09011077 -0.020120924 -0.008388993 -0.11552117 0.10051921 -0.0151500255 0.038202588 -0.051507168
-0.049392633 0.08450013 0.11945526 0.05980785 -0.14372072 -0.13935952 0.0798561 -0.01014432
0.075277 0.041817497 0.13509059 -0.03261161 -0.032147527 -0.026798086 0.053678576 0.06001122
0.03786277 0.051469624 0.08773571 -0.0052303243 -0.0037086946 0.043644007 0.036391504 -0.06821856
-0.034702957 -0.11210895 0.08221727 0.020486038 -0.11004926 0.0771286 -0.07244662 0.028378105
-0.011425223 -0.013507939 -0.11223207 -0.0996257 0.020744493 -0.13019398 -0.15004876 -0.068067536
-0.059919663 0.07242135 0.0066438643 0.086089656 0.003111005 -0.0061539686 -0.031299178 -0.01674257
0.1227525 0.048177604 -0.030060109 0.05777982 0.028558688 0.03185563 0.012770219 -0.011890268
-0.082446255 0.05262055 -0.043935463 0.104701966 0.0454394 0.01926201 -0.015291344 -0.0866995

lstm.bias_ih_l0 f4 [280]
00000000: e10f 113d 9c8c 853d b781 213e 2534 ba3c
00000010: 0774 d13d 73e6 483d f864 163d 9c1d 5dbc
00000020: 6167 db3d 2037 10bd 0d60 b43d 8774 6fbd
00000030: e960 f43d 1682 a83c 2f0f bd3c 03b8 f63b
00000040: b52c 1a3c b2d2 b93d a912 c8bd 5e10 873c
00000050: 5dde d7bc 4f07 2fbd c5b4 94bd 7cdc 003e
00000060: 37dc 33bd 91e8 09bd b7cf 6b3c 8b77 2ebc
00000070: 040f 2c3d 12dd 183d 118b 75bd 0af4 70bd
00000080: 241f 9d3d f311 f83d 1526 d43d 6388 483c
00000090: c116 0b3e 210f 983d ff5e 573d fdc3 a0bd
000000a0: 1d10 c03b ee8e cc3d 9f7b aabd 15a8 9ebd
000000b0: ac24 73bd 471c 97bd dc5b 49bd c98f adbd
000000c0: 8a72 703d e0ca 9fbd 60cb 80bd 3d1c eb3d
000000d0: 40cd dabb a071 9dbd 7d7f 583d abd7 e83d
000000e0: a037 48bc 8a0c 4abd 57f0 583a 2870 983d
000000f0: 9b25 58bc 58dc 45b9 f8ef 1fbc 2183 7abd
00000100: 030a bd3d 9b59 cabd 995c 69bd 1863 fe3d
00000110: 6c9d 99bc 8849 fc3d db24 c83d c14a e53d
00000120: c96a 503d 538a b93d c9fe 1f3d 9261 873d
00000130: 8849 4c3d f8c0 b5bd 5190 c8bd b175 edbc
00000140: cffa 6e3d b120 e63d 8bd9 65bd ce6b c4bd
00000150: 44dc e93d d649 48bc 0494 6d3d f4ce 403d
00000160: bda5 953d 4fad b93d 2dfe 0d3e 77b4 1d3c
00000170: f976 083d 73e5 88bd 3872 e33d 0dcc dabd
00000180: 1b50 c03d f627 2cbd a6e2 193d 3f66 4b3c
00000190: 9de9 883d 4dd4 f73d 1fc5 1e3d 7ab7 a1bd
000001a0: 38e5 eabc 2056 b63d 743d cb3d f67d 8fbd
000001b0: 3686 c33d 6929 1f3d ebc5 c1bc 574d 573d
000001c0: 1fbd 233d 505c b1bd 69f4 b7bd 9619 aa3d
000001d0: 5f2d 803d 5eef bf3d cb3a ef3d 3fa2 bf3c
000001e0: 29cf 40bc 44e9 b8bd 627e dd3c a572 033e
000001f0: 0562 c63d 8a94 9dbd 9312 703d a7c6 aabd
00000200: 7578 843d fb32 29bd d7b5 8abd cad4 0a3e
00000210: 4d57 963c 617c 0a3e 0da5 ad3d da96 003e
00000220: 42b6 f13b 3ec0 943d ecb7 e83d fe27 5bbc
00000230: 580b c9bc 9c08 7fbd feb1 36be b7e1 b2bc
00000240: b382 53bd d29d b5bc 14ae 8f3d 9055 04be
00000250: 624f 68bd ba6d 07be a8b9 0bbe ebba 8c3c
00000260: a43b b73d 7f75 c4bd e98d 6c3c 8911 febb
00000270: c7a7 98bd e0a2 e53d 3f15 c1bd a391 abbd
00000280: d8a2 01be 2fd0 373d 2c26 783d f61d a7bb
00000290: d111 8abd 0146 01be 6a58 113e 35e6 2dbd
000002a0: b394 103b 2d58 8c3b d22f 4d3c ada8 4b3d
000002b0: ab22 68bc 1b89 183d e558 553d 6cb0 123e
000002c0: 5243 9b3d 513d f6bd 5652 98bd cb54 80bd
000002d0: 3a34 f33d 8440 b63d 2713 adbd a903 1dbd
000002e0: 54f7 a03d 51db ec3b bc2c 8abd 6daa afbc
000002f0: be24 c13d 9676 3fbc e203 953c f3aa b1bd
00000300: 41f5 dfbd 18b1 f33c 462e 163e 6f1b fb3d
00000310: 1a7d 2fbd dbe5 dcbd 9aaa d43d c894 40bd
00000320: 0f3e 553d 5873 813d 05c8 d23d 5b18 04be
00000330: fb3b 2a3e 2754 19bd 66e3 823d 414b b1bc
00000340: 1f30 b53d ff5a 66bd d240 913d 82dd a7bd
00000350: 4356 243d 3e37 f63d b766 9b3d 46fd a5bc
00000360: cb00 d1bc 73a1 c7bd b5d1 af3d f9c4 9fbc
00000370: 3540 9e3d ea84 8ebd 597a 2f3c cc84 123d
00000380: 3624 683d a303 c53d fefa d3bc b538 8b3d
00000390: 62fc b93d 38bb af3d 0ff0 56bd e77e b33d
000003a0: f045 043e fb41 b93d 5bb7 8dbd 597c aa3d
000003b0: b397 c3bc dbcf 74bd 8e1d 8f3d bff0 3cbd
000003c0: bc8c a03d 896f e2bc c868 ab3d 7ae5 d63d
000003d0: 312a 7fbd 89e6 63bd 806e 92bd f905 50bd
000003e0: ba0f 073e 66a4 a03d c0fd bb3b a7cd f13c
000003f0: 8b3f 983d 68ae 6e3d 2d2b f53d 07ab a63d
0.035415534 0.0652096 0.15772139 0.022729943 0.102272086 0.0490479 0.036717385 -0.013495829
0.10713077 -0.03520882 0.08807383 -0.05846074 0.11932547 0.020569842 0.02307853 0.00752926
0.009410073 0.0907339 -0.09769184 0.016487297 -0.026351148 -0.04273158 -0.072610416 0.12584108
-0.043911185 -0.03366906 0.014392785 -0.010648618 0.042006508 0.037320204 -0.059947077 -0.058826484
0.07671955 0.121127985 0.10358826 0.012239548 0.13582899 0.074247606 0.05258083 -0.07849882
0.005861296 0.09988199 -0.0832436 -0.07746903 -0.059361145 -0.0737844 -0.04915987 -0.084746905
0.058702983 -0.07802367 -0.06288791 0.114799954 -0.0066772997 -0.07687688 0.052855957 0.113692604
-0.012220293 -0.049328364 0.00082755595 0.07443267 -0.01319256 -0.00018869468 -0.009761803 -0.06116021
0.09230425 -0.09880372 -0.056973074 0.124212444 -0.018751822 0.123187125 0.097726546 0.11195899
0.05088309 0.090595864 0.03906134 0.06610407 0.049874812 -0.088746965 -0.09793151 -0.028986784
0.05834466 0.11236704 -0.05611567 -0.095908746 0.114189655 -0.012224635 0.058002487 0.047072366
0.07307003 0.09066259 0.13866492 0.009625546 0.033316586 -0.06684389 0.1110577 -0.10683451
0.09390279 -0.042030297 0.037569664 0.012414514 0.06685183 0.1210104 0.038762208 -0.078963235
-0.028673753 0.08903146 0.09923831 -0.07006447 0.09547083 0.03885785 -0.023653945 0.05256399
0.03997528 -0.08660185 -0.089821644 0.083056614 0.06258654 0.093718275 0.11681136 0.023392795
-0.011768141 -0.09028867 0.027037803 0.12836702 0.096866645 -0.07694347 0.058611464 -0.08338671
0.06468288 -0.041308384 -0.067729644 0.13557735 0.018352175 0.1352401 0.084787466 0.12557545
0.007376463 0.0726323 0.11363205 -0.013376234 -0.024541542 -0.06226407 -0.17841336 -0.021836145
-0.051638316 -0.022169981 0.07015625 -0.12923265 -0.05671633 -0.13225451 -0.13645041 0.017178973
0.089469224 -0.09592723 0.014438131 -0.007753555 -0.07453876 0.112127066 -0.094278805 -0.083773874
-0.12659776 0.044876274 0.06058328 -0.005100007 -0.067416795 -0.1262436 0.14193884 -0.04245587
0.0022061288 0.0042829723 0.012523608 0.04972141 -0.014168422 0.03724013 0.05208673 0.14325112
0.075812 -0.12023414 -0.07437579 -0.06266173 0.11875196 0.08899024 -0.08450919 -0.03833357
0.07859674 0.007228293 -0.06746814 -0.02144357 0.09430836 -0.011685988 0.018190328 -0.08675184
-0.1093545 0.02974753 0.1466609 0.12261092 -0.042843916 -0.10786029 0.10384102 -0.04701689
0.052061137 0.06320828 0.10292057 -0.12899916 0.16624443 -0.03743377 0.06391029 -0.02164233
0.08847069 -0.056239124 0.070924416 -0.08196546 0.040121328 0.12022255 0.07587951 -0.020262372
-0.025513073 -0.09747591 0.0858492 -0.019503104 0.0772709 -0.06958945 0.010710322 0.035771176
0.05667516 0.09619834 -0.025876518 0.067979254 0.09081341 0.08580631 -0.05247503 0.08764439
0.12917304 0.09045788 -0.06919738 0.08324499 -0.023876047 -0.05976854 0.06988059 -0.04612803
0.07839343 -0.027641075 0.08369595 0.10492988 -0.062296096 -0.055639777 -0.071499825 -0.050786946
0.13189593 0.078438565 0.0057370365 0.029517008 0.07433995 0.058271796 0.11971126 0.081380896

lstm.bias_hh_l0 f4 [280]
00000000: e0b0 fabc b4b8 99bd 8528 f2bc 41d8 de3c
00000010: e5ff 353b 940e cabc 7636 593d 8598 33bd
00000020: beff c53d d2e7 88bd 64b0 b53c 7589 b7bc
00000030: cba1 4a3d 1601 05bd fc5d 77bd 1645 253b
00000040: 7fbb 33bc 5717 43bd ee34 bbbd ad70 82bc
00000050: 5c88 8d3c 9c39 01bd 04cc 5abd a6a8 3bbd
00000060: 8b21 2b3d 2f38 63bc 28cb 603c f818 50bd
00000070: 7080 2abd 74eb abbd ff0e 8abd a435 71bb
00000080: 4063 e83d 9cc8 903b 97a8 5abc 90c5 733d
00000090: 9cd9 a33d c3aa 87bd dfb7 acbc 4d49 da3d
000000a0: 8aa2 093e 786c 37bc 02b7 24bc ecd5 7b3d
000000b0: 39b6 cabd 6cb5 153c 0d63 2b3d 3b2b 923d
000000c0: 20f6 a1bd 688e e03d 9d4c 5cbd 74c2 ee3d
000000d0: ad43 423d b59d 513d d306 4bbc 798f 8b3d
000000e0: aa76 30bc c056 c7bc 1ea4 d33c fea3 adbc
000000f0: 8199 2d3d 11d6 083c fbdc efbc 7121 b6bc
00000100: 4de2 133e 3faf 10bd c2cc 2e3d 62fb 7ebd
00000110: aa37 2abd 7f29 043e bac3 0e3e 02ab 0e3e
00000120: 8886 90bc 5684 823d 832f 843d cbde 803c
00000130: 2628 a9bd ecf1 95bd 306c f33d ee01 75bd
00000140: 27a8 5ebc 981c e53d 2dc1 2cbc 7de8 a1bc
00000150: e67f a8bd 0861 b8bd 37ff acbd 5a0f 293b
00000160: 112e 0c3d 0c94 6fbd 899e c53d 9401 6bbd
00000170: 48e5 80bc 7209 063e 9296 f73d 06bc c43d
00000180: 7ac8 c13d 8a1e 073e 0113 3e3d 3f0b ddbc
00000190: 2dea ed3d 5211 bb3d 2d28 153d 458d b03c
000001a0: c547 de3d 177d 103d 2f5f dbbd ee26 233d
000001b0: e306 cd3d ae67 583d 3ed4 0b3d 0705 67bd
000001c0: 3570 8b3d cbae 55bd d4a1 103d b201 2fbd
000001d0: 12f4 663d ee4b 8fbd f1a9 4bbd b53c 1d3d
000001e0: 5cb5 093d 0f50 993d 0b00 9e3d 4617 b9bd
000001f0: 2376 aa3d 68fa 413d 1844 e73d 255d aabd
00000200: f9ef 5abd 0d11 2e3d 00bc 0e3e b03c d03d
00000210: e6bd bc3d 6878 9c3d f85c 023d 3d3b d03d
00000220: 8c0c be3d 3f8f d03b 26e0 853c 0a6a e13d
00000230: 2e11 883d a93a 603d 098a a1bd 2233 eebd
00000240: d9d1 bd3d 7a88 f6bd 6388 edbb 5f9e bdbd
00000250: 8abf 72bc 7405 a2bd 3dff 1e3d ede7 c13d
00000260: 7a64 293e e301 fcbc fdb1 8cbd 1b9e 15be
00000270: 2f60 a9bd 1619 c63c 1d97 ffbd 70ef 42bd
00000280: fbf0 f7bd a19e 61bd 69de 9cbc 2bc8 2abc
00000290: e8d2 04bd 7e5f ddbd 835c 1fbc f7ce 7fbd
000002a0: c69e eabd f4ad 00bc 80a9 753d 6a75 d9bd
000002b0: d280 e03d e949 2c3d 055e ea3d cecc e8bc
000002c0: 8fd0 303d 988d fcbd 1a2c 703c f8d3 073c
000002d0: a6e6 5e3d b6e9 12bd b150 f0bd c5e5 12bd
000002e0: a6b4 103d bd87 303c c13e 36bd 2801 9d3d
000002f0: 80bd bcbc 0a06 e43c 3f6f a73d 8904 f9bb
00000300: e86d fbbc c7d2 483c 38dd 8bbd a6ac d3bb
00000310: e60e 9bbd f3c2 c13c 7246 d4bd e966 5bbb
00000320: 33de e9bd 348b dc3b 1973 cf3d 28fe cf3d
00000330: af73 223e 602c 473d e80a f7bd 814c 133d
00000340: ff22 debc d174 e0bc d496 c33d 177d 9f3d
00000350: a6e5 e63c bd82 93bd a67b 2ebd 1f20 8dbb
00000360: f139 3e3c c5d1 0d3d ce91 ccbd b46d bcbc
00000370: e683 b1bd d0ea b5bd dfb1 923d 69d7 69bd
00000380: 4a97 8a3c 3458 ce3d 37cf d33d cf68 02bd
00000390: 1475 e33d 6e98 ee3d 25df f43c d0bb f73d
000003a0: 51e0 1b3d eaa6 28bd c234 ccbc 1a90 9d3d
000003b0: 49af 9cbd 0fa6 043e 8f62 df3c be56 b63d
000003c0: d071 c9bc b997 d8bd 876a 753c a563 9cbd
000003d0: 9e93 d23d 35ef 103e 9171 ff3d e304 313d
000003e0: a39d 2ebd c77f b7bd 68bc d73c 0056 5f3d
000003f0: bbb9 b6bc 9564 a8bd 1f1f b4bc d130 9d3d
-0.030601919 -0.075059325 -0.029560337 0.027202727 0.0027770933 -0.024665155 0.053030454 -0.043846626
0.096679196 -0.06684841 0.022178836 -0.022404412 0.049470704 -0.03247174 -0.060392365 0.002521818
-0.0109699955 -0.04762968 -0.09140955 -0.015922869 0.017276935 -0.03154908 -0.05341722 -0.045815133
0.041780036 -0.013868376 0.013720311 -0.050805062 -0.041626394 -0.083945185 -0.067411415 -0.0036805654
0.113470554 0.0044184458 -0.013345859 0.059514582 0.0800049 -0.06624367 -0.02108377 0.10658512
0.1344091 -0.011195295 -0.010053398 0.06148331 -0.098980375 0.009137493 0.04184251 0.07137152
-0.07908273 0.10964662 -0.053784 0.11658183 0.047427822 0.05117579 -0.012391764 0.068144746
-0.010770479 -0.024333358 0.025835093 -0.021196362 0.04238272 0.008351819 -0.029280176 -0.022232743
0.14441796 -0.035323378 0.04267574 -0.062251456 -0.04155699 0.12906455 0.13941851 0.13932422
-0.017642274 0.06372897 0.06454375 0.015731236 -0.08259611 -0.073215336 0.118858695 -0.059816293
-0.013589895 0.111870944 -0.010544104 -0.01976418 -0.0822752 -0.09002882 -0.08447116 0.0025796504
0.03422362 -0.058490798 0.09649379 -0.057374552 -0.01573433 0.1308954 0.12089266 0.09606175
0.09462066 0.13195243 0.046404842 -0.026982902 0.11616931 0.09134163 0.036415268 0.021551738
0.10853533 0.035275545 -0.10711514 0.039832048 0.10011079 0.05283325 0.034137957 -0.05640128
0.06808511 -0.05216865 0.03531058 -0.042726226 0.056385107 -0.06996904 -0.049722616 0.038387973
0.033620223 0.07485973 0.07714852 -0.09037642 0.08323314 0.047357947 0.11292285 -0.08318547
-0.053451512 0.04249673 0.13938904 0.10167825 0.09215908 0.07640153 0.031826943 0.10167549
0.09279737 0.0063647325 0.016342234 0.110065535 0.06643902 0.054743443 -0.07887656 -0.116308466
0.09268541 -0.120377496 -0.0072489246 -0.092587225 -0.014816174 -0.07911196 0.038817633 0.094680645
0.16542235 -0.030762618 -0.06869886 -0.14611094 -0.08270299 0.024181884 -0.124799944 -0.047591627
-0.1210651 -0.05508292 -0.019149022 -0.0104237 -0.0324277 -0.10809229 -0.009726646 -0.062453236
-0.11456065 -0.007853974 0.0599761 -0.10618098 0.109620705 0.042062674 0.11443714 -0.028417971
0.043167647 -0.12331694 0.014658952 0.008290283 0.054419182 -0.035867415 -0.11734141 -0.035863657
0.03532853 0.01077455 -0.04449344 0.07666236 -0.02303958 0.02783491 0.081755154 -0.0075994176
-0.030692056 0.0122572845 -0.068293035 -0.0064597903 -0.07571201 0.02365253 -0.10364999 -0.0033478087
-0.11419334 0.0067304615 0.10129375 0.10155898 0.15864442 0.048626304 -0.12062627 0.03596163
-0.027116297 -0.027399452 0.095502526 0.07787531 0.028185677 -0.07202671 -0.04259839 -0.0043068076
0.011610494 0.03462388 -0.099887475 -0.02300153 -0.08667736 -0.088826776 0.071628325 -0.057090197
0.016917843 0.10075417 0.103422575 -0.031838235 0.11106315 0.116501674 0.02989156 0.12096369
0.03805572 -0.041174807 -0.0249275 0.07693501 -0.076506205 0.12953971 0.027268676 0.089032635
-0.024590403 -0.10575814 0.014979011 -0.07636193 0.10282062 0.1415375 0.12472833 0.04321755
-0.042630803 -0.089599185 0.026334956 0.054525375 -0.02230536 -0.082223095 -0.021987496 0.076753266

lstm.weight_ih_l1 f4 [280, 70]
00000000: 6ec9 083b 4702 df3d 56b6 52bd f1cd 72bd
00000010: 0c1e a5bd 03a3 f4bd 597e 583d f1e3 f2bd
00000020: 76ea 54bd 5bcc f8bd b0b0 4f3d 4a9d 863d
00000030: 0e84 32bc 421d eabd 2a46 5e3d 25e9 c43d
00000040: bc6d 023e c1e3 c73d 6e09 92bd dba1 5a3d
00000050: 400b 0bbe 9c69 bd3c 8284 bc3d 489a 95bd
00000060: 2329 a9bd ebb0 763c 0d5c c4bd b6e9 91bd
00000070: f96c 1d3d 7271 68bd 41bb 6a3d 5f41 e6bd
00000080: d35f 313d b097 07be 79a6 be3d 3e90 cdbd
00000090: 7dda 62bd cf4b 32bd e616 513d 092d 95bc
000000a0: ff3c 1b3c 4efc b73c 1504 c0bd 4762 bbbb
000000b0: cb30 acbd 9b08 183c fc8f 603d 349b 98bd
000000c0: f696 75bd b70e 543d d353 e7bb def2 26bc
000000d0: 7d6c e1bd 54c0 c0bd 0aef 913c 9451 f43c
000000e0: 2ec4 aa3d 2338 69bd fa21 0d3e 8fe1 29bd
000000f0: 891c b63c 9f23 dfbd 0f17 11bd 4b90 253c
00000100: 91fe f33d f793 0a37 40b8 5ebd c3f1 acbb
00000110: c3d6 023c 8f9b 8cbd ad56 71bd e0e5 babd
00000120: 1d29 12bd 9486 cbbd a3de b8bd 1e26 96bd
00000130: 6eca 973d 0274 c7bd b849 9cbd 57ab c1bd
00000140: 39e4 9abd 3f34 00be f124 a83d f5bd 88bd
00000150: 6dfa 34bb e1f2 ad3c 68c8 abbd 68c7 f7bd
00000160: aee9 d7bb b12d 933d 350d 09be 2306 c339
00000170: 6942 003e 1081 b13d 4bf7 723d 9199 d7bd
00000180: 062b a4bb 7a22 843d 3ff4 11bd 1e3a d93d
00000190: 0d4c 65bc 9e6f b53d ba39 8fbc cfa4 a43d
000001a0: 719c c3bc 3a26 5d3c 7ade 503d e6dd acbd
000001b0: 1ffd c83d ada2 f13d eab0 b03d 23b7 08bd
000001c0: e600 ffbc e944 96bd 11bb 45bb 7ffe b1ba
000001d0: daa5 fcbd b252 683d 636d 823c 696f d2bd
000001e0: adf6 e13c c886 253d 6c04 98bc 9ce1 b4bd
000001f0: f063 b93d 9f48 a73d 6f82 5f3d e921 963d
00000200: 91ca 2d3d c8f8 0a3d 45a4 42bd a48d 813c
00000210: 077e 633d 4b57 593d 460d 98bb 6e23 84bc
00000220: 093e 12bd 8a36 e8bc e7e1 3b3b 746e 1b3d
00000230: dcf2 e2bc eb42 9f3d fb54 b3bd f3c6 80bd
00000240: e52b 7c3d a458 063d 2761 da3d 7587 adbd
00000250: de8e 443d 94e3 a4bb f272 e2bd 5763 c73d
00000260: 7362 1ebd 6a24 2ebd 3ca9 51bb 9928 c33c
00000270: dbb9 d53d f3b1 9e3d c1ac e13c 58f3 cb3d
00000280: fc30 38be 2e29 e83d 23b5 a0ba 86e1 c8bd
00000290: 4c69 85bb 5b89 063c f619 d83c 981d f83d
000002a0: 1b8d 573c 57b4 b83d 8eb2 32bd ff1d 603d
000002b0: 20a8 f5bd 346d 7fbd c5af d63d ab0a 063d
000002c0: f926 133c d882 fa3c 4444 1a3e e653 f6bd
000002d0: cb5a b63d e8f1 8cbd 25c7 6e3d 30ce 26bb
000002e0: b82f 1dbd 1661 56bb 7ae9 9e3c d13d 8a3d
000002f0: 82e9 76bc 6c6c bfbd 8f57 e1bd 8a1c 1c3d
00000300: 3c0d 17bb 02ce 053e f29b 14bd 8b56 c73d
00000310: 498e 953d 49c1 e53c 40dd c53d bc0a c43b
00000320: 5d48 be3d ed10 b3bd abc1 60bd d274 183d
00000330: 774c fd3d cf75 babd b7e3 f0bd 1d33 d7bd
00000340: cd94 4abd ecd4 f5bc 1c5f 1d3e 989c 323d
00000350: c614 29be eb8e 79bd 12a9 813d 3428 a1bd
00000360: 3bfc cc3d ab79 8ebd 542d 0c3e d193 90bd
00000370: 1d20 ccbc 668a c13c f290 de3c c1c5 34bd
00000380: c8fd 073e 3fd8 44bd 9a7e f7bb 1cc0 de3d
00000390: 1695 e6bd 57f4 b2bd c361 b8bd ce69 303d
000003a0: 8a03 a0ba f8f3 e8bc e204 9c3d 8712 98bd
000003b0: c38e c53b 5afb f4bd 9606 263d 12e7 793d
000003c0: 429a fb3c b73c 00be a955 71bd 9db9 e7bd
000003d0: 075d 853d 0b3d 89bb 313d f73d 372f 84bd
000003e0: 7d01 d63d d810 abbd 6ea5 d63d 42bd 7cbd
000003f0: 907e 6bbd cda5 1a3d e3b4 6bbd 343c e13d
0.0020872015 0.10889106 -0.05144342 -0.059278432 -0.080623716 -0.119451545 0.05285487 -0.118598826
-0.051981412 -0.12148353 0.05070561 0.06572969 -0.010895742 -0.11431362 0.054266132 0.09614781
0.12737173 0.097602375 -0.07130705 0.053377014 -0.1357851 0.023121648 0.09204961 -0.073048174
-0.08259799 0.015056829 -0.0958787 -0.07124655 0.038434003 -0.056748815 0.057307485 -0.11242937
0.043304276 -0.13241458 0.09309096 -0.10037278 -0.055384148 -0.043529328 0.05104723 -0.018209951
0.009474992 0.022459175 -0.093757786 -0.0057185027 -0.08407744 0.009279395 0.054824814 -0.07451478
-0.05995842 0.051771846 -0.007059553 -0.01018974 -0.110070206 -0.09411684 0.017814178 0.029824056
0.083381996 -0.0569383 0.13782492 -0.041474875 0.022230403 -0.10895466 -0.03542238 0.010105203
0.11913789 8.259892e-06 -0.054374933 -0.0052778437 0.0079857735 -0.06865608 -0.05892055 -0.091258764
-0.03568374 -0.09937778 -0.090268396 -0.07331489 0.07411657 -0.097389236 -0.07631248 -0.094565086
-0.07563061 -0.1251993 0.08210171 -0.066768564 -0.0027615086 0.021233978 -0.08387834 -0.120985806
-0.006589136 0.07186449 -0.13383944 0.0003719787 0.12525333 0.08667195 0.05931787 -0.10527337
-0.0050100116 0.064518884 -0.03563332 0.10606788 -0.013995183 0.0885918 -0.01748358 0.08039247
-0.023878308 0.013497883 0.05099342 -0.08440761 0.09813904 0.11798606 0.08627494 -0.033377778
-0.031128358 -0.07337362 -0.0030171315 -0.0013579874 -0.12336321 0.05671949 0.0159213 -0.10275156
0.027583444 0.04041174 -0.018556796 -0.08832094 0.09052265 0.08168148 0.05456775 0.073306866
0.04242951 0.033928663 -0.04751994 0.01581461 0.05554011 0.053061765 -0.004640254 -0.016130175
-0.035703693 -0.028346319 0.0028668584 0.037947133 -0.027703695 0.077764355 -0.08756443 -0.062879466
0.0615653 0.032799378 0.106630616 -0.08473102 0.04798781 -0.0050320122 -0.1105708 0.097357444
-0.038668107 -0.042515196 -0.003199174 0.02382307 0.1043584 0.07748785 0.027548196 0.099585235
-0.17987436 0.113359794 -0.0012261014 -0.0980864 -0.0040713903 0.008211459 0.026379567 0.121150196
0.013156201 0.09018772 -0.043627314 0.054716107 -0.11994958 -0.062360004 0.10482744 0.032725018
0.00898146 0.03057997 0.15065104 -0.12027721 0.08904036 -0.068820775 0.058295388 -0.0025452487
-0.038375586 -0.0032711676 0.01939844 0.06750072 -0.015070321 -0.09346852 -0.110030286 0.038113154
-0.002304866 0.13066867 -0.036281534 0.09733304 0.07302529 0.028046267 0.09661341 0.005982725
0.09291146 -0.08743463 -0.054872196 0.037220784 0.123681 -0.091045015 -0.11762183 -0.10507796
-0.049458314 -0.030008756 0.15368313 0.04360637 -0.1651183 -0.060927313 0.06331076 -0.07868996
0.10009047 -0.069568 0.13689166 -0.07059444 -0.024917657 0.023625564 0.027168725 -0.044133905
0.13280404 -0.04805779 -0.007552934 0.10876486 -0.11258905 -0.087380104 -0.090030216 0.043069653
-0.0012208086 -0.028436646 0.07618119 -0.07425409 0.0060289814 -0.11962004 0.040533625 0.06101138
0.030713204 -0.12523161 -0.058919583 -0.113147 0.06511884 -0.004188185 0.12072218 -0.06454318
0.104495026 -0.08352822 0.10480772 -0.061703928 -0.057493746 0.037755776 -0.057545554 0.10997811

lstm.weight_hh_l1 f4 [280, 70]
00000000: d84e f1bd 7000 03bd 6e3f edbd e3ff c73d
00000010: 830b 1a3b e701 c53d b59a a73c f678 62bd
00000020: b119 8f3d e929 f0bc 1b51 753d c211 a7bd
00000030: 93b4 9bbd ff06 03bb 311d d63d 6337 a93d
00000040: cca5 8abc 9278 593d ecac c33d 39f4 d53b
00000050: f800 d3bd 8d84 5cbb bcc9 c0bc ad18 483d
00000060: 813e 043d 014a a03d 83ef e5bd f496 a83d
00000070: 337c cfbd 4077 3b3b 1622 d4bd a28b 0a3e
00000080: 8eb2 e33d 9c6b bdbb ae38 b53d 70c4 a6bd
00000090: ad0e d13d 9c09 053d af40 ad3d f02b 98bc
000000a0: 2e7f e3bc 264c 233d 89c4 783b a8d4 bebd
000000b0: 18d6 073e 7e8b 85bd 0a6d 5ebc baea 17bd
000000c0: 6ed6 d83d 01df ec3d 2b90 86bc c929 2c3d
000000d0: 5251 8dbc ab04 683d f1ec 20bd 1434 52bd
000000e0: 438f 513c 97e4 1a3d 74af 98bd ffac b1bd
000000f0: fa46 d43d 8613 c73c a26d a83c 741a a3bc
00000100: 0eef 67bd cf20 08bd 70d4 bdbd 22de a93d
00000110: b485 773d ac07 81bd 3710 9ebc 18c5 e2bd
00000120: 3a0f 303c e87a eabd c28e 90bd ac9e 993d
00000130: ac19 79bc 6892 bf38 096a ffbd b2d1 91bd
00000140: 5232 e53d 6ad2 17bd 5464 aebd 3f96 283d
00000150: 608f 883d d3d7 bbbd 193d 8cbd c384 273d
00000160: 21e3 87bd 797e 5f3d a93d 95bd 7499 683c
00000170: c24a d9bd 77de 07bd 279a a83d 4029 583c
00000180: 0b80 f4bd 3603 003e ec0b 07be 4cca b63d
00000190: 1ef6 2f3c c6a1 743d c24a 843d 8605 c93d
000001a0: 35f8 9dbd 6ee7 f43c ac84 2f3d 16d8 143d
000001b0: a245 0d3e e526 01be bb5f 593c a453 b23b
000001c0: d6b3 343d 80c4 a73d 56a9 2b3d 4165 eebc
000001d0: ad99 1ebd 7b78 cf3d e246 b1bd a870 323b
000001e0: ae3f ffbd 0fd6 babd a8aa ebbc fb81 94bd
000001f0: 7a89 5e3d 6ec8 e33c d797 ddbb 4951 623d
00000200: 17e3 ebbc e678 983d f9ea 22be 4eb7 89bd
00000210: a260 0fbb e3f3 dcbd 4e05 9a3d 7ed1 30bc
00000220: ae5e 30bc 37fc 9cbc 08cc b03c ebbe 6fbd
00000230: 9a83 01bd 4924 80bd 2d75 c2bc 03b2 95bd
00000240: db13 863d c102 a03d ca5c ff3d f907 763d
00000250: b1ee c7bd 35b8 f5bc 1990 433d eefb 8f3c
00000260: 0ba6 dc3d adc4 53bd ef9e cc3d 2cf3 513d
00000270: 8772 213d 3086 6abd ad61 53bd d534 b43d
00000280: 26b5 7fbd 5e44 68bb bdf3 fa3d 4a0e aabd
00000290: 7667 fdbd b36b a43d 9bb2 a13d 5b4f bfbd
000002a0: a7dd 6e3d e469 493d 122d fabc 6dda 473d
000002b0: 9175 26bd 3c29 223c ab42 22bd b19b 0f3d
000002c0: f05d df3d 885c bf3d 06fb f13d 6750 5ebc
000002d0: 150a af3c a55c bdbc 0e59 703d 72f9 b4bd
000002e0: fd21 093e 7656 e33d f0a4 b43c 26fe 50bd
000002f0: b31d 7b3d 6068 543d 641b babd 5f18 f5bd
00000300: 9659 8abd 6ffc ab3d 28a6 5c3d 4ce3 cf3d
00000310: 8b2d b0bd 0ff4 11bd 7a67 243a d533 893d
00000320: 5a20 e33c 2909 8bbd a796 f9bd 56e3 ab3d
00000330: 1cec be3d fd87 a4bd 75e4 e0bc 50d9 cb3d
00000340: 6af9 e2bd 2da0 bb3d b17c 0c3d 3898 703b
00000350: 7fa7 b63d 14e0 083d 9618 7f3a b4e2 fabb
00000360: ecbd b03d 8deb 64bb 2114 0dbe dba5 d33c
00000370: cb7a 043e 66f6 dd3d c892 fe3d 612e 653d
00000380: e5b4 0e3e 6fed 423d 5a3d f5bd e8cc 603d
00000390: f81a 7b3c 7f77 03bd 2387 e73d e603 203e
000003a0: 1026 743d bc30 54b9 4b63 843d 5991 e93b
000003b0: b4da 0ebe 5744 273d 1a70 98bc 7c84 0d3c
000003c0: 4195 023e afc9 00bc fe74 6dbd f371 b9bd
000003d0: 5747 0e3e 944e 4b3d 3313 b33d 2ee9 42bd
000003e0: 7751 163e 8fb9 7dbd d919 873d 1646 0b3d
000003f0: ed80 56bd 0fef 4fbd 48a9 fa3d a53a 2cbd
-0.117826164 -0.03198284 -0.11584364 0.097656034 0.0023505397 0.096195035 0.020459512 -0.05529114
0.06987322 -0.02931686 0.0598918 -0.08157684 -0.07602801 -0.0019993184 0.104547866 0.08262517
-0.016924761 0.0530935 0.095544666 0.0065293577 -0.10302919 -0.0033648342 -0.023533694 0.048851658
0.03228617 0.07826615 -0.11227324 0.08231917 -0.10131111 0.0028605014 -0.10358064 0.13529828
0.11118041 -0.0057806503 0.088487014 -0.08142936 0.10207877 0.032479867 0.08459603 -0.018575639
-0.027770605 0.039867543 0.003795894 -0.09317905 0.13265264 -0.06520747 -0.013575802 -0.037089087
0.10587774 0.11565972 -0.016426167 0.042032037 -0.01725069 0.056645077 -0.039288465 -0.051319197
0.012790504 0.037815657 -0.0745534 -0.086755745 0.103651 0.024301302 0.02056009 -0.019910075
-0.056624465 -0.033234414 -0.09269035 0.082943216 0.060430244 -0.063002914 -0.019294841 -0.11072749
0.010745818 -0.11449224 -0.07058479 0.075009674 -0.015203875 9.13486e-05 -0.124713965 -0.07120074
0.111912385 -0.0370659 -0.0851523 0.04115891 0.066679716 -0.091720246 -0.06847591 0.040898096
-0.06635118 0.054563973 -0.07287151 0.014196742 -0.10609962 -0.033171143 0.08232527 0.0131934285
-0.11938485 0.12501225 -0.13188142 0.08925304 0.010739831 0.05972459 0.064595714 0.09815507
-0.07713357 0.02989551 0.042851135 0.036338888 0.13796094 -0.12612493 0.013267453 0.0054420996
0.044116817 0.08191776 0.04190954 -0.029101016 -0.038720775 0.10130402 -0.08656098 0.0027227793
-0.12463318 -0.0912286 -0.028767899 -0.07251354 0.054330327 0.027805533 -0.0067624855 0.0552533
-0.028794808 0.074449345 -0.15909947 -0.06724416 -0.0021877666 -0.10788705 0.07520543 -0.010792134
-0.010764761 -0.019163234 0.021581665 -0.058531683 -0.031619646 -0.06256921 -0.023737514 -0.07309344
0.06546756 0.07813025 0.1246887 0.060066197 -0.09762324 -0.029995063 0.047744844 0.017576184
0.10773858 -0.051701237 0.09991252 0.051257297 0.039415862 -0.057256877 -0.051606823 0.087991394
-0.062428616 -0.003544114 0.12253521 -0.08303507 -0.12373249 0.080283545 0.078953944 -0.09341308
0.058316853 0.04917325 -0.03053907 0.04879229 -0.040639464 0.009897526 -0.03961436 0.03506059
0.10906589 0.09343821 0.11815457 -0.013568974 0.021367112 -0.023115465 0.05867868 -0.088366404
0.13391872 0.111004755 0.022051305 -0.051023625 0.06130762 0.051857352 -0.090872556 -0.11967539
-0.067553684 0.08397757 0.053869396 0.10150775 -0.08602437 -0.035633143 0.0006271523 0.06699339
0.027725387 -0.067888565 -0.12186938 0.0839297 0.09322378 -0.0803375 -0.027452687 0.099535584
-0.11082728 0.091614105 0.034298602 0.0036711823 0.08918666 0.033416823 0.00097311416 -0.0076564196
0.08629975 -0.0034930438 -0.1377721 0.025835922 0.12937467 0.108380124 0.1243034 0.055952433
0.13936193 0.047589716 -0.119745925 0.054882914 0.015326254 -0.032096382 0.11305072 0.15626487
0.05960661 -0.0002023605 0.06464251 0.0071279225 -0.13950616 0.04083666 -0.018608142 0.008637544
0.12752248 -0.007860585 -0.0579729 -0.09054937 0.13894401 0.049635485 0.08743896 -0.04758566
0.14679514 -0.06194454 0.06596727 0.034002386 -0.052369047 -0.050765093 0.12239319 -0.042048115

lstm.bias_ih_l1 f4 [280]
00000000: 6296 fd3c 36fe c2bd 4c53 7f3d f5b9 513e
00000010: aa26 19bd 8917 a73d 6526 31bd 521d 473d
00000020: a416 e53d 7a6a e03d 5d4b 31bc d36c 773d
00000030: 25be 9cbd a989 2fbd a39c 243d 7544 103e
00000040: 855e bdbd 620d d53b d5be 323a 96ce 3bbd
00000050: e9a9 303d a209 30bd 6741 653d bab1 9b3d
00000060: ef36 1cbd 4880 aa3d 8e2d 00bd 1f41 1e3d
00000070: c641 b63d 9c77 a23d b10b f23d 9c6b d03c
00000080: e08e 40bd 3542 07bd 7b5a a5bd a7a3 823d
00000090: 1a44 1f3d 3402 94bb 1a1f f43c 1827 413d
000000a0: 7c3e 96bd 745f 7abd 630b e63d 1db6 033d
000000b0: a70b c33c 4c28 963a 10da 86bd fb06 743c
000000c0: 6562 813d 3308 83bd 606d ca3d 3438 e33d
000000d0: c541 8f3c dac2 f13d 2dbf b93d 6fce e03d
000000e0: 023c d43c ea11 cd3d d603 d23c adde 8e3d
000000f0: fdd8 96bd 96f4 b63d 4bdf 97bc fb3a b73d
00000100: 164e 003e 589e c13d 0dd5 063e 2317 6a3d
00000110: 7ce1 673d c9c5 5dbc 8f99 cabd ef72 7fbd
00000120: 2baa 63bd e311 aa3c 6d12 ee3d 78ef e43d
00000130: 1895 973d 9f1d feba 4870 b93d 19a1 99bd
00000140: a24a b83c 0bbb 0e3e 8a0f f73c 7169 01bd
00000150: c71c 9e3d edcb 8a3c bcbf 0dbd c5cd bebc
00000160: fc7a 98bd 78ed aebd 4ca6 123d 4e7d d93c
00000170: 7297 783b b3ea a03c adb5 b0bd 058c 553d
00000180: 6ddf 553d c09f 2dbc d533 f7bc 421e adbd
00000190: 68fe 003e 412f 26bd 2383 ccbd 1953 273b
000001a0: 03e7 793c a733 a9bb a84d aabd 4b9b ba3d
000001b0: 2af2 dbbb 7b99 8fbc aa56 b43d f92b 123c
000001c0: 1d13 60bd f79e 513d 65e1 553d 951f e6bd
000001d0: 8bf8 383d 3808 b73c 537a cfbc 7ec7 1cbd
000001e0: 2ea1 dd3b d544 aa3d cd7d 4abd 59f0 923d
000001f0: 5ecb b0bc 3da1 e4bc 9d96 bbbd 2363 b6bd
00000200: 49d4 adbd 62a6 84bd 8af2 a03d 442c bf3d
00000210: 5c4e 6d3b fc0a bb3d c151 46bd d1bf e93c
00000220: 2ac9 0f3d 7c3e 4ebd f5de e63d 835a a0bd
00000230: ab42 83bc abbe 613b 8746 a7bc 95c0 5dbd
00000240: 6198 cfbd 921b f53c 07cb a53c 17b2 6dbc
00000250: 7e5f b83d 88b1 ddbd 8516 943d 6abf e43d
00000260: 58e2 a93d 0ea2 4dbd da16 363d 723e 843d
00000270: c81c ccbd 9023 8bbd 01fa 1bbd 6da0 9e3d
00000280: c03b 9e3d 13a1 6a3d 9ef9 bb3d 37a8 b53d
00000290: 9e5c 8cbd d4e8 c03d 81e5 fbbd 4af1 e23d
000002a0: 80af f0bd e584 67bc 9c34 033e c647 99bd
000002b0: 0868 8f3d 43ec 34bc eee2 173d e04c 2cbd
000002c0: 87e4 e73d c520 8fbd b7c1 82bd 2a8a f93c
000002d0: be64 9dbd df6a b7bd d098 3f3c 3ded ffbd
000002e0: 4f61 b43d 953c 05bd 29ff de3d 211f adbd
000002f0: efff 5dbd bc65 0abd 2235 5dbd 227a 10bd
00000300: f533 60bc 8ccc ed3d 7628 8fbc 9294 94bd
00000310: 2d4b df3d 8a28 763a 7637 ddbd ea7c bf3d
00000320: 6e18 f6bc 4384 9c3b 67c8 aa3d 1297 cf3d
00000330: 6647 64bd 723a e23d c3ff 1ebd 958c 96bd
00000340: 9e6c 643d ce48 503d 5496 8dbd d988 a0bd
00000350: 01d1 253c 76d8 903d 732a 7fbd 7933 a7bd
00000360: 8723 eb3d c4c9 ae3d 2b6f eb3d 8be4 9fbc
00000370: 92bd 89bd f7a4 35bd 9492 9d3c 318b ae3c
00000380: 01e2 db3d e56d 473a f9a4 7a3d 153a db3d
00000390: a351 76bd 5053 dbba 6514 eb3d 93ba 91bd
000003a0: 9970 663b 1f6e a73d e37f c93d 181e adbc
000003b0: dbea 093e c13d a83d 4612 b23d 7eb2 143d
000003c0: 7124 0fbd e433 e3bc 254d aa3d fa09 4bbd
000003d0: 4860 0f3c e164 003e 79ab 423d b647 a03c
000003e0: 0cd2 ae3b 62b0 7d3d 4ce0 043e bea7 a3bc
000003f0: c791 0d3d 79a0 53bd b7d4 57bd 230e b4bd
0.030955497 -0.09521143 0.062335297 0.20481093 -0.03739039 0.08158786 -0.043249507 0.048611946
0.11185959 0.10957809 -0.010821191 0.060406517 -0.07653455 -0.042855892 0.040188443 0.14088614
-0.09246544 0.0065018395 0.00068185973 -0.045851313 0.04313079 -0.042977937 0.055970576 0.07602258
-0.038138326 0.08325249 -0.031293444 0.038636323 0.08899264 0.0793297 0.11818636 0.025441937
-0.047011256 -0.033022124 -0.080738984 0.063788705 0.038883306 -0.004516864 0.029799987 0.047156423
-0.07336137 -0.061126187 0.112326406 0.0321561 0.023809267 0.0011456101 -0.06584561 0.014894242
0.063175954 -0.06398048 0.09884143 0.11094704 0.017487416 0.11804743 0.09069667 0.10976874
0.02590752 0.100131825 0.025636595 0.06976066 -0.07365606 0.0893337 -0.018539092 0.089467965
0.12529787 0.0945403 0.1316721 0.05715097 0.056611523 -0.013535925 -0.0989257 -0.06236547
-0.055582207 0.020760482 0.11624608 0.111784875 0.07401484 -0.001938749 0.09054619 -0.0750143
0.022496525 0.13938539 0.030158777 -0.031594697 0.077203326 0.016942943 -0.03460668 -0.023291478
-0.074453324 -0.08541387 0.035803124 0.026549008 0.0037932065 0.019643163 -0.08628402 0.052135486
0.05221503 -0.010597169 -0.030176083 -0.08453037 0.12597048 -0.04057241 -0.0998595 0.0025531708
0.015252831 -0.005163628 -0.08315593 0.09111651 -0.006712218 -0.01752924 0.08805592 0.008921617
-0.054705728 0.05117699 0.052216906 -0.112364925 0.045158904 0.022342786 -0.025326883 -0.038276188
0.006763599 0.0831391 -0.04943638 0.07174749 -0.021581348 -0.027908916 -0.091595866 -0.089056276
-0.08487756 -0.064770475 0.07858761 0.09334615 0.0036210036 0.091329545 -0.04841781 0.028533848
0.035103954 -0.05035256 0.112729944 -0.07829764 -0.016023 0.0034445922 -0.020419372 -0.05413874
-0.10136486 0.029920373 0.020238413 -0.014507792 0.09002589 -0.10824877 0.07230858 0.11169322
0.08295125 -0.050203376 0.044455387 0.06457223 -0.09966427 -0.067938924 -0.03808022 0.077454425
0.0772624 0.05728252 0.0917847 0.08869975 -0.06853603 0.094194084 -0.12299634 0.110811785
-0.11752224 -0.014130806 0.12813038 -0.07484393 0.07002264 -0.011042657 0.03708165 -0.0420655
0.11322885 -0.06988672 -0.063846044 0.03046139 -0.07685231 -0.08955931 0.011694148 -0.124964215
0.08807623 -0.03252848 0.10888512 -0.08453203 -0.054199155 -0.033788428 -0.05400575 -0.035272725
-0.0136842625 0.1161128 -0.017475348 -0.072549 0.109030105 0.0009390196 -0.10801594 0.09349997
-0.030040946 0.004776509 0.08339005 0.10136236 -0.055732153 0.11046304 -0.038818132 -0.07351033
0.055767648 0.050850682 -0.069134384 -0.078386016 0.010120631 0.07072537 -0.062296342 -0.081641145
0.11481386 0.085345775 0.11495813 -0.019518157 -0.06725611 -0.044346776 0.019234933 0.021306606
0.10736466 0.0007607623 0.061192486 0.10704438 -0.06013645 -0.0016733203 0.11478499 -0.07115664
0.0035162328 0.08175301 0.098388456 -0.021132514 0.13468497 0.082149036 0.08694892 0.036303036
-0.034946863 -0.027734704 0.083154954 -0.04957006 0.008750983 0.12538482 0.04752681 0.019565444
0.005335098 0.06193579 0.12976187 -0.019977447 0.034562852 -0.05166671 -0.052693095 -0.08791759
